v = 22.697160301531774
a_0 = 39.83011693861099	a_alpha = -0.5113081611742347
['f_00000', 'f_00001', 'f_00002', 'f_00003', 'f_00004', 'f_00005', 'f_00006', 'f_00007', 'f_00008', 'f_00009']
10
dict_keys(['x', 'y'])
id = f_00000, model = CustomLogisticRegression(
  (linear): Linear(in_features=5, out_features=3, bias=True)
), num_samples = 126
id = f_00001, model = CustomLogisticRegression(
  (linear): Linear(in_features=5, out_features=3, bias=True)
), num_samples = 265
id = f_00002, model = CustomLogisticRegression(
  (linear): Linear(in_features=5, out_features=3, bias=True)
), num_samples = 124
id = f_00003, model = CustomLogisticRegression(
  (linear): Linear(in_features=5, out_features=3, bias=True)
), num_samples = 43
id = f_00004, model = CustomLogisticRegression(
  (linear): Linear(in_features=5, out_features=3, bias=True)
), num_samples = 306
id = f_00005, model = CustomLogisticRegression(
  (linear): Linear(in_features=5, out_features=3, bias=True)
), num_samples = 146
id = f_00006, model = CustomLogisticRegression(
  (linear): Linear(in_features=5, out_features=3, bias=True)
), num_samples = 54
id = f_00007, model = CustomLogisticRegression(
  (linear): Linear(in_features=5, out_features=3, bias=True)
), num_samples = 179
id = f_00008, model = CustomLogisticRegression(
  (linear): Linear(in_features=5, out_features=3, bias=True)
), num_samples = 130
id = f_00009, model = CustomLogisticRegression(
  (linear): Linear(in_features=5, out_features=3, bias=True)
), num_samples = 118
BaseFederated generated!
gradient difference: 2.0123987197875977
At round 0 accuracy: 0.41114058355437666
At round 0 training accuracy: 0.39101274312541917
At round 0 training loss: 1.0800984192306733
gradient difference: 0.18125352263450623
At round 1 accuracy: 0.5994694960212201
At round 1 training accuracy: 0.579476861167002
At round 1 training loss: 0.963020946127317
…
