v = 22.697160301531774
a_0 = 114.9519737690743	a_alpha = -1.490701789577724
['f_00000', 'f_00001', 'f_00002', 'f_00003', 'f_00004', 'f_00005', 'f_00006', 'f_00007', 'f_00008', 'f_00009']
10
dict_keys(['x', 'y'])
id = f_00000, model = CustomLogisticRegression(
  (linear): Linear(in_features=5, out_features=3, bias=True)
), num_samples = 126
id = f_00001, model = CustomLogisticRegression(
  (linear): Linear(in_features=5, out_features=3, bias=True)
), num_samples = 265
id = f_00002, model = CustomLogisticRegression(
  (linear): Linear(in_features=5, out_features=3, bias=True)
), num_samples = 124
id = f_00003, model = CustomLogisticRegression(
  (linear): Linear(in_features=5, out_features=3, bias=True)
), num_samples = 43
id = f_00004, model = CustomLogisticRegression(
  (linear): Linear(in_features=5, out_features=3, bias=True)
), num_samples = 306
id = f_00005, model = CustomLogisticRegression(
  (linear): Linear(in_features=5, out_features=3, bias=True)
), num_samples = 146
id = f_00006, model = CustomLogisticRegression(
  (linear): Linear(in_features=5, out_features=3, bias=True)
), num_samples = 54
id = f_00007, model = CustomLogisticRegression(
  (linear): Linear(in_features=5, out_features=3, bias=True)
), num_samples = 179
id = f_00008, model = CustomLogisticRegression(
  (linear): Linear(in_features=5, out_features=3, bias=True)
), num_samples = 130
id = f_00009, model = CustomLogisticRegression(
  (linear): Linear(in_features=5, out_features=3, bias=True)
), num_samples = 118
BaseFederated generated!
num_samples = [126 265 124  43 306 146  54 179 130 118]
msize = 502400
xs = [  6.0943416  -20.79968212  15.00902392  18.81129433 -39.02070377
 -26.04359014   2.55680806  -6.32485185  -0.33602315 -17.06087855]
ys = [ 17.5879595   15.55583871   1.32061395  22.54482414   9.35018685
 -17.18584926   7.37501568 -19.17765202  17.56900603  -0.99851822]
…
