['f_00000', 'f_00001', 'f_00002', 'f_00003', 'f_00004', 'f_00005', 'f_00006', 'f_00007', 'f_00008', 'f_00009']
10
dict_keys(['x', 'y'])
id = f_00000, model = CustomLogisticRegression(
  (linear): Linear(in_features=784, out_features=10, bias=True)
), num_samples = 974
id = f_00001, model = CustomLogisticRegression(
  (linear): Linear(in_features=784, out_features=10, bias=True)
), num_samples = 173
id = f_00002, model = CustomLogisticRegression(
  (linear): Linear(in_features=784, out_features=10, bias=True)
), num_samples = 347
id = f_00003, model = CustomLogisticRegression(
  (linear): Linear(in_features=784, out_features=10, bias=True)
), num_samples = 307
id = f_00004, model = CustomLogisticRegression(
  (linear): Linear(in_features=784, out_features=10, bias=True)
), num_samples = 103
id = f_00005, model = CustomLogisticRegression(
  (linear): Linear(in_features=784, out_features=10, bias=True)
), num_samples = 107
id = f_00006, model = CustomLogisticRegression(
  (linear): Linear(in_features=784, out_features=10, bias=True)
), num_samples = 162
id = f_00007, model = CustomLogisticRegression(
  (linear): Linear(in_features=784, out_features=10, bias=True)
), num_samples = 171
id = f_00008, model = CustomLogisticRegression(
  (linear): Linear(in_features=784, out_features=10, bias=True)
), num_samples = 103
id = f_00009, model = CustomLogisticRegression(
  (linear): Linear(in_features=784, out_features=10, bias=True)
), num_samples = 441
BaseFederated generated!
Round 1
-------------------------------
gradient difference: 7.207571506500244
At round 0 accuracy: 0.7603305785123967
At round 0 training accuracy: 0.7728531855955678
At round 0 training loss: 0.86526317760856
Round 2
-------------------------------
gradient difference: 0.9944568872451782
At round 1 accuracy: 0.7995867768595041
…
