v = 22.697160301531774
a_0 = 5.182017686793693	a_alpha = -0.03425458469693173
['f_00000', 'f_00001', 'f_00002', 'f_00003', 'f_00004', 'f_00005', 'f_00006', 'f_00007', 'f_00008', 'f_00009']
10
dict_keys(['x', 'y'])
id = f_00000, model = CustomLogisticRegression(
  (linear): Linear(in_features=5, out_features=3, bias=True)
), num_samples = 126
id = f_00001, model = CustomLogisticRegression(
  (linear): Linear(in_features=5, out_features=3, bias=True)
), num_samples = 265
id = f_00002, model = CustomLogisticRegression(
  (linear): Linear(in_features=5, out_features=3, bias=True)
), num_samples = 124
id = f_00003, model = CustomLogisticRegression(
  (linear): Linear(in_features=5, out_features=3, bias=True)
), num_samples = 43
id = f_00004, model = CustomLogisticRegression(
  (linear): Linear(in_features=5, out_features=3, bias=True)
), num_samples = 306
id = f_00005, model = CustomLogisticRegression(
  (linear): Linear(in_features=5, out_features=3, bias=True)
), num_samples = 146
id = f_00006, model = CustomLogisticRegression(
  (linear): Linear(in_features=5, out_features=3, bias=True)
), num_samples = 54
id = f_00007, model = CustomLogisticRegression(
  (linear): Linear(in_features=5, out_features=3, bias=True)
), num_samples = 179
id = f_00008, model = CustomLogisticRegression(
  (linear): Linear(in_features=5, out_features=3, bias=True)
), num_samples = 130
id = f_00009, model = CustomLogisticRegression(
  (linear): Linear(in_features=5, out_features=3, bias=True)
), num_samples = 118
BaseFederated generated!
gradient difference: -3.7811695108302956e-08
At round 0 accuracy: 0.5623342175066313
At round 0 training accuracy: 0.5110663983903421
At round 0 training loss: 0.9539881241736652
At round 0 test loss: 0.9565465266887958
gradient difference: 9.685754420729609e-09
At round 1 accuracy: 0.5782493368700266
At round 1 training accuracy: 0.533869885982562
…
