['f_00000', 'f_00001', 'f_00002', 'f_00003', 'f_00004', 'f_00005', 'f_00006', 'f_00007', 'f_00008', 'f_00009']
10
dict_keys(['x', 'y'])
id = f_00000, model = CustomLogisticRegression(
  (linear): Linear(in_features=5, out_features=3, bias=True)
), num_samples = 126
id = f_00001, model = CustomLogisticRegression(
  (linear): Linear(in_features=5, out_features=3, bias=True)
), num_samples = 265
id = f_00002, model = CustomLogisticRegression(
  (linear): Linear(in_features=5, out_features=3, bias=True)
), num_samples = 124
id = f_00003, model = CustomLogisticRegression(
  (linear): Linear(in_features=5, out_features=3, bias=True)
), num_samples = 43
id = f_00004, model = CustomLogisticRegression(
  (linear): Linear(in_features=5, out_features=3, bias=True)
), num_samples = 306
id = f_00005, model = CustomLogisticRegression(
  (linear): Linear(in_features=5, out_features=3, bias=True)
), num_samples = 146
id = f_00006, model = CustomLogisticRegression(
  (linear): Linear(in_features=5, out_features=3, bias=True)
), num_samples = 54
id = f_00007, model = CustomLogisticRegression(
  (linear): Linear(in_features=5, out_features=3, bias=True)
), num_samples = 179
id = f_00008, model = CustomLogisticRegression(
  (linear): Linear(in_features=5, out_features=3, bias=True)
), num_samples = 130
id = f_00009, model = CustomLogisticRegression(
  (linear): Linear(in_features=5, out_features=3, bias=True)
), num_samples = 118
BaseFederated generated!
num_samples = [126 265 124  43 306 146  54 179 130 118]
msize = 300240
xs = [-475.  500. -490. -495. -460. -420.  500. -450.  500.  500.]
ys = [-500.  450. -500.  500.  500.  500.   35. -500.   10.  490.]
dists_uav = [ 991.980343  391.024296 1002.247474  755.926584  723.878443  687.604538  366.367302  975.141015  379.605058  415.812458]
…
